models/value_function_learning/baseline.pth (torch, 72739 bytes, 19 tensors)

weight f4 [16, 1, 3, 3]
00000000: 7d85 ba3d 5f8e b53d 3fb1 98be 5092 993e
00000010: 78d9 57bd 858b c43e 9633 20be 6ade 09be
00000020: 39c9 92be 81a0 51be 4fa7 863c d8d8 fb3d
00000030: a1ab 88bd a97f 47be d2ec 41be 4e59 883e
00000040: 584f 133e b3af f03d da46 c0be 5017 843e
00000050: 542a e83d 58d5 803e 3190 1abe 5db9 fdbd
00000060: 5f92 523e 925a 27be 61a8 c8be 250a 45be
00000070: 4e77 563e a599 90be fcd1 9dbc c14d b23e
00000080: 7218 ea3d 5e66 41be 52ba d53d d76b abbe
00000090: 32ae 90be 882f fb3d a7fe 36be d547 3d3e
000000a0: afaf 2c3e f76d 153e 9515 c5bd 280c 813d
000000b0: 2ec4 52be 4c88 c43e f7c5 04be 6bbd 22be
000000c0: 7e8f bc3d 3ae2 5cbe 9ca7 1bbc 41e3 8a3e
000000d0: 9be3 77be 098a c03d 5853 1a3e c845 a2be
000000e0: b186 b83e c586 02be 4ba7 87bd 70ef 1d3e
000000f0: 2002 abbe fd32 f1bb 0b9e 0f3e e755 fd3d
00000100: ba23 9abe 7fc9 9fbe ae1f cabe 16ae 74be
00000110: b582 d33e 21e6 9f3e c249 14bd b13b 683e
00000120: de36 883e 159c b6be b968 abb9 f6e1 513d
00000130: c58e 19bd d22b f6bc dd6e 8e3e 244c fcbd
00000140: 4911 70bd 820b 243e b3fd 74bc b332 113e
00000150: 6dd0 7c3d 61f6 2abe 1c33 41bd fc49 313e
00000160: 2e79 13be d17d d23e e189 89be fad0 353e
00000170: 8b83 b8be 5440 eabd 6493 183e a94a 3e3e
00000180: 140e 023e d5f5 68bc 6042 9c3d af4c 20bd
00000190: 22c4 a23c 81e6 1b3e e8af 26be 1c77 fd3e
000001a0: 36c9 a83e c4f2 8d3e 3234 a83e cb07 993e
000001b0: a94a d33c 905a d0bd 6794 bc3d 7bf9 f9bd
000001c0: e0b3 f2bd e160 cd3d 1b3a b73e ad0e 13be
000001d0: 77bf b53e 096e 853e 068d 9c3b 2187 f6bd
000001e0: 0ace 2a3f d7d3 a03e 7723 0dbc 530e 033e
000001f0: c3da 9e3e 2663 80bd d31f 17be 7896 c43d
00000200: 9632 fe3d 0b21 9ebd 9872 1b3e f93a bcbd
00000210: 36fa e7be 418c 163e 5a57 133e 6e9c 88be
00000220: 2ad9 7dbc 7dd2 43be 5b6b 2fbc 41ba ac3e
00000230: f1a8 903e a71c b43d e383 973e 154b 98be
0.09107492 0.08865046 -0.29822728 0.2999444 -0.05269763 0.38387695 -0.15644678 -0.1346375
-0.28669146 -0.20471384 0.0164372 0.12297219 -0.066733606 -0.19482292 -0.18937996 0.26630634
0.14385736 0.11752262 -0.37554055 0.25799036 0.113361984 0.25162768 -0.15094067 -0.12388871
0.20563649 -0.16343144 -0.39190963 -0.19242151 0.20943949 -0.2824222 -0.019265167 0.34824947
0.11430444 -0.18886706 0.104359284 -0.33480713 -0.282579 0.12264925 -0.1787058 0.18484433
0.16863893 0.1459273 -0.09623257 0.06301147 -0.20582649 0.38385236 -0.12966143 -0.1589257
0.092070565 -0.21570674 -0.00950041 0.27126506 -0.24207918 0.09401328 0.15070856 -0.31693864
0.3604026 -0.12746723 -0.066237055 0.1542337 -0.3340006 -0.0073608146 0.14025132 0.123699
-0.30105382 -0.31208417 -0.39477295 -0.23894534 0.4131066 0.31230262 -0.036203153 0.2267902
0.2660436 -0.35665956 -0.00032693686 0.051240884 -0.03748967 -0.030050192 0.27818957 -0.1231921
-0.058610234 0.16020015 -0.014953065 0.14179496 0.061722208 -0.16695549 -0.047167882 0.17313379
-0.14401695 0.41111615 -0.26863006 0.177555 -0.3603786 -0.11438051 0.14899975 0.18583168
0.12700683 -0.014218767 0.076298475 -0.03913563 0.019868914 0.15224649 -0.1627804 0.49504936
0.32966012 0.27724278 0.32852322 0.29888758 0.025792437 -0.101735234 0.09207993 -0.12205788
-0.11850715 0.10028244 0.35786518 -0.14361067 0.3549764 0.26060513 0.0047775535 -0.120374925
0.6672064 0.3141162 -0.0086144125 0.12798433 0.31026277 -0.06268911 -0.14758234 0.09599012
0.12411992 -0.07721146 0.15180433 -0.09190936 -0.45308083 0.1470194 0.1438879 -0.26681846
-0.0154936705 -0.19123264 -0.010706748 0.3373585 0.28253892 0.087945275 0.2959281 -0.29744783

bias f4 [16]
00000000: c7c4 faba 8058 6fba f50d b7b8 2b94 93b9
00000010: a175 3bba c857 323b d2e7 b8ba 6f07 d83a
00000020: 67c1 0c39 9451 8638 5a12 94ba af4f e2b9
00000030: 3570 b739 274f dab9 3391 83b7 c67e f03a
-0.001913213 -0.0009130314 -8.72872e-05 -0.0002814842 -0.0007151012 0.0027212966 -0.0014107174 0.0016481708
0.00013423488 6.404813e-05 -0.0011296973 -0.00043165448 0.0003498808 -0.00041639173 -1.568403e-05 0.0018348328

weight f4 [16]
00000000: af48 643f 030d 903f af98 963f a465 873f
00000010: fd07 8d3f 4350 5c3f eba0 5d3f 5f68 c13f
00000020: c16e 923f 79ba 503f c70d 973f e2b8 463f
00000030: 058a 4f3f 6d24 473f a613 633f 925b 683f
0.89173406 1.1253971 1.1765345 1.0577893 1.1018063 0.8605997 0.86573666 1.5109977
1.144005 0.81534535 1.180108 0.7762586 0.81069976 0.77789956 0.88701856 0.90764725

bias f4 [16]
00000000: 0ff6 aa3d 0def dfbe 6904 fcbe 7cbc 95bd
00000010: 0eb7 183d 9c5d eb3d 03b0 48be d26c e7bd
00000020: 237f cc3c 8f36 a2bf 8975 1e3e eb80 ed3d
00000030: acf8 2cbf 697d e03d 16b4 5f3c 3779 abbe
0.08347713 -0.4373707 -0.49222115 -0.07311341 0.03728395 0.11492464 -0.19598393 -0.11300053
0.024962967 -1.26729 0.15474524 0.11596855 -0.67566943 0.1096142 0.013653776 -0.33490917

running_mean f4 [16]
00000000: c647 1fbf e41a 7e3d 2249 79c0 f0ef 34c0
00000010: c1b6 75bf 90d1 293f 3018 193e 7691 2bc0
00000020: 80ad b2be 585f ca40 b41e 85bf e55b 9041
00000030: 130f 9340 e2b7 7a41 f8b6 44bf e322 ef3f
-0.6221889 0.062037364 -3.8950887 -2.8271446 -0.95981985 0.6633539 0.14950633 -2.6807532
-0.34897995 6.3241386 -1.0399995 18.04487 4.59559 15.669893 -0.7684169 1.8682522

running_var f4 [16]
00000000: facf 1543 e4cd 1143 53fb e843 b910 4543
00000010: 942e 2242 78d7 1443 1791 db42 5ff5 7d44
00000020: 58fc 8842 2829 9844 883f 7543 cc09 2d46
00000030: 1a63 1c44 3c0d 1446 a2d7 ce42 0d22 8843
149.81241 145.80426 465.96347 197.06532 40.545486 148.84167 109.78338 1015.8339
68.49286 1217.2861 245.24817 11074.449 625.54846 9475.309 103.42116 272.26602

weight f4 [8, 16, 3, 3]
00000000: aba3 a03c 6f1f 25bd d1b7 673c ff4e c3bd
00000010: e63b 2cbd 5d69 e8bc 1619 10bd edaa 6bbd
00000020: d048 08be 5bb1 58bc 5dea 7d3d 72ed a9bd
00000030: 994f 6b3d f281 133e b2d5 f13d 88bd 2a3c
00000040: 6780 22bd a003 4ebd c769 d63d d841 663e
00000050: 9e08 5c3e 1bd4 053e c02c bcbd 9cc5 cdbd
00000060: 834c 65bc 4b24 fbbd eb85 97be 8ad8 523e
00000070: d8b5 ad3d 87e8 9e3d 2fe8 393a 2dea f9bd
00000080: 6c56 fdbd 04e3 d9bc 5a7c 20be 43e0 4dbe
00000090: ac1b 193e f1dd 163d e80a d23c b4dd c53d
000000a0: bf12 213b 0e7b b3bd ed2b cd3c bae3 cbbd
000000b0: 413d 64be ee2a d9bb bcf5 0cbc e207 273b
000000c0: 408f d2bc e13e e4bb faaf 2a3d dbc3 083d
000000d0: 65cb ef3c c51c 6ebc 1b7a 213d ef4b 263d
000000e0: f9da 1fbd 3a8c e23d 5f48 c93d 7d88 44bd
000000f0: ea4d 9ebc b462 223d 1022 723d 1fb6 1c3f
00000100: e902 e93e edcc 363d 8200 053f 58a4 143f
00000110: 3596 c43e 576f 653e 13ab 773e f7b5 d03d
00000120: 6926 11bd aa55 983c 3a4b 8e3d 30bf 99bb
00000130: 66b8 af3d ab9d 5d3d de9e d53d 992a 2cbd
00000140: 0cbc f3bd 88fe 6e3d 4e9d 143e 3fd7 ca3d
00000150: 8be3 d63d db3e 8c3d 8eb0 09bd e75b 90bd
00000160: 1ad3 8dbe 9baf c3be 990d 8b3e 0505 693e
00000170: 05ab 0dbc 758f 613e 1391 863e f69b 633e
00000180: b9ce f73c b479 1a3d daed 6e3d da0a 243d
00000190: 55a4 4abd 648a b7bc d4c3 2cbc a9d8 15bd
000001a0: 0039 99bc 7577 0f3d 6104 56bd d63e f4b9
000001b0: 8c11 8e3d 1ee9 983c a112 d23c 2e63 1bbd
000001c0: f4ac d9bd 7db5 4dbe afed 2ebd aace 64be
000001d0: c44f 16be 2a40 7f3c b2ac 273c ffcb 1cbd
000001e0: 456e fdbc 782a 49bd 3120 16bd 51fc 153d
000001f0: 4996 25bc feb2 11b8 665c de3d df42 e73d
00000200: d05d 12bc 528d aa3b 76fd 01bd c2fa 9cbd
00000210: 9b0e d8bd 4c6e 7dbb 0bcc 623b 7120 3aba
00000220: 7133 d7bb 7b8f 4f3d 1fd6 22bd c21e 63bd
00000230: cdba 84be 0710 99bc 1c48 f1bd 409b 15bd
00000240: 6679 9cbc a4cb 023c 8038 923c a580 96bb
00000250: 93e4 c5bd d1c2 1dbd 06a3 33bd 879b 653d
00000260: 8077 c23d 470c e0bd 56ee c0bd cc9b a6bb
00000270: 585a 8fbd 46c2 53bd 599c babd a9fd 2fbe
00000280: ec1f 653c d640 393d 5db3 753e 5780 9c3d
00000290: b5fe 2ebd f402 77bd fc6f 80be f81b debd
000002a0: 5748 25bd 879b 29be e65e 59bd eaee 503d
000002b0: 7ada 053e 7c1d 493e c604 53bc 896b 93bc
000002c0: be87 20bc d32a f2bc b680 87bb 95a2 77bd
000002d0: ec12 073e 61e4 103e e4f9 453e 100e cbbc
000002e0: 153e 4cbc e3c3 c73d d985 453d 673d c03d
000002f0: 5c4a acbc 73ca 10be 87f4 bd3a 5531 803d
00000300: fc64 0fbe ccac b9bd 7dd5 453c b693 bebe
00000310: 9753 97be 9149 06be f7ac 82bc f323 5bbd
00000320: e50b 88bd 011d 823d 9ffe a3bc 5d21 7f3b
00000330: d365 4e3c 1bc0 1c3d d2e5 39bc 56bd 88be
00000340: 398e adbc e1a9 0f3e e5fc b5bd a375 a23c
00000350: d934 843d 01e2 3b3c 7174 873d 9ddb 08bc
00000360: 2583 5abd ceea d63d 09fe 073e 0a07 41be
00000370: 785f 36be b3ab 503d 805c a7be fdac b9be
00000380: 047f 99bd 47c5 213e 7cf9 173e 1623 cb3d
00000390: f3cc 053e 7fdd 393e a176 323e bbea 0abc
000003a0: 55ac b93d e8fb 883d b6e3 7d3d 74d1 3f3e
000003b0: 9189 543e 57bc c63c 1987 833d 11fd d43d
000003c0: df50 13bd 09e9 9a3c 3e80 a93c cf21 cdbc
000003d0: 1b06 f9bc 2d94 4fbc 5781 5dbd daf7 37bd
000003e0: f83c 253c 96b9 adbe 6662 5fbe 6cb5 2ebd
000003f0: ce42 893d 5ff2 b73d f8de 8b3d c946 f43c
0.019609293 -0.04031318 0.014142946 -0.09536552 -0.04204931 -0.028370554 -0.035180174 -0.057536054
-0.13309026 -0.013225879 0.061991084 -0.08297242 0.057448957 0.14405039 0.11808337 0.010421164
-0.039673235 -0.050296426 0.10469394 0.22486055 0.21487662 0.13069193 -0.09188223 -0.100474566
-0.013995293 -0.12262782 -0.2959436 0.20590416 0.084819496 0.07759195 0.0007091788 -0.122028686
-0.12369999 -0.026597507 -0.15672436 -0.2010508 0.14951962 0.036832754 0.025639966 0.09661427
0.0024577824 -0.08763705 0.02504536 -0.09955545 -0.22288992 -0.006627432 -0.0086035095 0.0025486876
-0.025703073 -0.0069655036 0.04167173 0.033389907 0.02927179 -0.014533226 0.03942309 0.04059976
-0.039027188 0.11061902 0.09828257 -0.047981728 -0.019324262 0.039644912 0.059114516 0.61215395
0.45510033 0.044629026 0.519539 0.5806327 0.3839585 0.22405754 0.24186353 0.10190957
-0.03543702 0.018595535 0.06947942 -0.004691981 0.08580093 0.054105442 0.10430692 -0.04203281
-0.119011015 0.05834821 0.14513132 0.09904336 0.10492619 0.06847926 -0.03361564 -0.07048779
-0.2770012 -0.38219914 0.27158812 0.22755821 -0.008646731 0.22027381 0.26282558 0.22227463
0.03024994 0.03771372 0.0583323 0.04004941 -0.049473125 -0.022404857 -0.010544736 -0.036583576
-0.018703938 0.035026032 -0.05225027 -0.00046586123 0.069369406 0.018665846 0.025643649 -0.037936382
-0.10628691 -0.20088764 -0.04270714 -0.22344461 -0.14678866 0.015579263 0.010234045 -0.038280483
-0.03093637 -0.049112767 -0.036651794 0.03661758 -0.010106632 -3.4737393e-05 0.10857467 0.112920515
-0.008933499 0.005204835 -0.03173586 -0.07665016 -0.10549661 -0.0038670478 0.0034606482 -0.0007100171
-0.0065674116 0.050673943 -0.039754983 -0.055449255 -0.25923768 -0.0186844 -0.11781332 -0.03652501
-0.019100856 0.007983122 0.017849207 -0.0045929723 -0.09662738 -0.03851587 -0.043856643 0.056056526
0.09495449 -0.10939842 -0.09420459 -0.0050844904 -0.069996536 -0.051698945 -0.09111852 -0.17186607
0.013984662 0.045227848 0.23994203 0.076416664 -0.042723376 -0.06030555 -0.25085437 -0.10845178
-0.04035219 -0.16563235 -0.053069018 0.051009096 0.13071623 0.19640154 -0.012879556 -0.017995613
-0.009797988 -0.029561436 -0.0041352166 -0.060457785 0.13190812 0.1414962 0.19333607 -0.024786979
-0.012465973 0.09754159 0.04822335 0.093867116 -0.021031551 -0.14139728 0.001449243 0.06259409
-0.14003366 -0.090661615 0.012074825 -0.3722207 -0.2955596 -0.13114001 -0.015951617 -0.05350108
-0.06642894 0.06353188 -0.020018874 0.0038929798 0.012597519 0.038269144 -0.011346297 -0.26706952
-0.021185981 0.14029647 -0.088861264 0.019831484 0.064553924 0.011467458 0.06614006 -0.008353141
-0.053347725 0.10494004 0.132805 -0.18850341 -0.17809856 0.050944995 -0.3268776 -0.36264792
-0.074949294 0.15797912 0.14841264 0.099188015 0.13066463 0.181509 0.17428066 -0.008478816
0.09066073 0.06688672 0.06198474 0.18732244 0.20755602 0.02425973 0.06422252 0.10399831
-0.035965797 0.018909948 0.020691033 -0.025040535 -0.03039842 -0.012669605 -0.054078426 -0.044914104
0.010085337 -0.33930653 -0.2181488 -0.042653486 0.06702195 0.089817755 0.06829637 0.02981891

bias f4 [8]
00000000: fee3 33ba 9f08 b43c e3dd 1dbb 853a bf39
00000010: 800a 3a3c efd8 0abc 69d1 c8ba e811 723c
-0.00068622816 0.021976767 -0.0024088554 0.0003647396 0.011355042 -0.008474573 -0.0015321198 0.014774777

weight f4 [8]
00000000: a05d 263f 63ff 293f aacc 1e3f 3b64 1e3f
00000010: 8227 1a3f 5b34 133f 1f5b 343f 59bd 153f
0.6498661 0.66405314 0.6203104 0.6187169 0.60216534 0.57501763 0.7045154 0.58492047

bias f4 [8]
00000000: 2c4d aa3d c4b1 8fbe b1e8 c3bd aa8a d33d
00000010: d674 57bd c062 1b3d f31f 113e a442 d33d
0.083155006 -0.28065312 -0.09565867 0.103291824 -0.052601658 0.037935972 0.14172344 0.10315445

running_mean f4 [8]
00000000: b2f0 1c3f e511 22bf 84f9 36bf 85ad eb3e
00000010: 866f d2be a502 b73e 4469 d53e 8485 763e
0.6130477 -0.63308555 -0.7147448 0.46030822 -0.4110071 0.35744205 0.41681874 0.2407437

running_var f4 [8]
00000000: 032a 1940 8e82 c93f 3444 2740 75fb 0340
00000010: 0810 b53f e8c6 f93f ef1b 3840 655d 9b3f
2.3931892 1.5742967 2.6135378 2.0622227 1.4145517 1.9513826 2.876705 1.2137877

weight f4 [64, 94]
00000000: 1ad5 213d 4d83 8f3e 035a 90be 24c2 ccbd
00000010: 578b 1bbe e49d 9fbd 81b5 51be d669 1dbd
00000020: a7df ccbd e22d c1bd fe46 a4be 1535 c2bd
00000030: 2585 8a3c fd1a 39bd 10be 58be 74bf bdbc
00000040: 8c8c 233d 2456 19be e0b7 0b80 8b8d 0600
00000050: 113d 923d cfc5 a0bc e6ca 64bd d710 73bd
00000060: dc27 893c 3cbd 81bc 64dd 01bd 5cc0 a1bb
00000070: 9207 213d ec42 92bd 78ef 2dbe 98c1 293e
00000080: 672f c03d 1457 03bd 691a be3d a663 ca3c
00000090: 419b f0bc 1686 393d f315 b3bd a279 6dbd
000000a0: 4478 84bc c668 4fbe ca9d 5bbd ec38 33bd
000000b0: ba5d 603d 83e4 a1bc a151 cbbd 3b80 88bd
000000c0: 9076 003a 4639 e4bd 623c 8fbd 37bd df3d
000000d0: 98cb 67be a215 fc3d d014 3c3d 47a9 1a3e
000000e0: c820 c9bc 4d09 aabd 7077 cdbc 50dd d0bd
000000f0: c8a2 fb3b 180c e23d dceb 0f3d 6ccf 4e3d
00000100: fbce 22be 44cd 71bd dc82 433d 7d3d aaba
00000110: c38b 153e d3ac 49bb 2fca 303c a4bd 433c
00000120: e739 283c 22c1 4f3d 5b01 efbd 9ccd 86bd
00000130: 6496 6cbd 5db4 90be 68a1 323d 6bcc 093d
00000140: 56df 35bc ce18 f7bb ff06 bbbd 55b5 63bd
00000150: f644 efbd 6939 a23c c9f4 45bd 23cf 2a3e
00000160: b40a c0bd 23f6 63bd 32f9 6e3d 184e 48be
00000170: b8ed a3bd 247f 27bd 5a94 4c3e 346b 1f3f
00000180: df78 40be 7f96 fc3e c98d 693e 9214 d1be
00000190: 99a2 97be 8b67 0a3f 9ac6 bc3e e132 9dbe
000001a0: 9042 6cbe 0a0e 263f daef 643e f8f2 93be
000001b0: 90e1 aabe 7d33 063f 422e a73e 4e42 c0be
000001c0: 6e07 0a80 91e1 0900 cd1b 9b3e fe1f 98be
000001d0: 9966 b13c 7e6e cd3b d0b9 dbbb f825 533c
000001e0: da96 a33c 9470 d73b 302a b0bd f283 4f3c
000001f0: f275 313d 9a7e b83d 6882 0a3d 39da f63d
00000200: b949 b63d 14ef e83b 1f6f 93bd 3789 403d
00000210: 2a07 81bc 1036 24bc 8ea4 2dbd 3c32 283d
00000220: 8bf2 5c3d 0309 b0bc d149 f83d 6bf1 3a3d
00000230: 94ab b53d 5285 ee3c 9085 b73c cf94 eabd
00000240: a4db 72be f24c 68bc 5102 52bd df6a aabb
00000250: d585 4fbb 16d8 2d3d c031 d23c 7e56 5b3c
00000260: f76c 91bc 0636 3e3c 97d9 29bd 9564 cb3d
00000270: 50fb d5bc b768 4cbc ee9d 2bbc 49d1 9d3b
00000280: 009d 5a3d 2d1d 5d3d b641 093d efbb a93c
00000290: 6056 6d3b 8b16 8abd 218b 8c3c db2f 73bd
000002a0: 8cfb 13bb 00fe 45bc f83f 083d 5bb4 89bd
000002b0: 00ab 5dbe 9d8b 76bc 7faf b3bb 8528 833b
000002c0: 6861 e8bc ca73 c43b 6873 dd3b 4124 52bd
000002d0: c040 edbd b828 cebb 8a7f c9bd ecb4 463d
000002e0: 2d8c e9bb c14e 04bd f4cc 4c3c a6a0 823c
000002f0: a8df 873e 0c56 c53e 5329 41be 1c60 a73f
00000300: 3996 da3d ab34 8d3d d160 00be a6dc 9b3f
00000310: 6347 c43d cda8 093e f26c 5bbe 0e72 8e3f
00000320: c6c5 0e3e 0740 983d 6aeb 80be 9621 9e3f
00000330: d0b9 3cbc 1158 903d ef04 0000 5ab1 1180
00000340: d0ac a73d 9706 4c3e 8026 703d c08a 3d3d
00000350: 293d 1d3e 843f a13c c695 ce3c 2dd2 12bc
00000360: 66e9 2b3c 8585 30bd 8725 e0bd cece 8abc
00000370: 4f8f 853c cd82 67bd f035 76bc 697f 883a
00000380: 10d2 4bbe b7b8 c13a 48b0 65bc b14b 1c3d
00000390: 3092 04bd cbba 52bd 1c5d 13bd 356a 9abd
000003a0: a81f cebd bbc1 85bd ce10 4bbd bb46 7dbd
000003b0: ef37 77bd d540 1b3d 34bb 973d 7624 7a3d
000003c0: 21c0 a63d ccac f93d 5272 5d3b 1fe9 e5bc
000003d0: c283 0cbc 15f8 623d 67a9 083d bbb3 5fbc
000003e0: ae6f d0bc 0e75 80bd dcf5 58bc 7784 f1bd
000003f0: 5676 a7bd 1728 81bd 0b99 4dbd 8a9c d6bc
0.03950987 0.28029862 -0.28193673 -0.09997967 -0.15189873 -0.07793787 -0.20479394 -0.03843101
-0.10003596 -0.094325796 -0.32085413 -0.09482781 0.016909191 -0.045191754 -0.21166253 -0.023162581
0.039928958 -0.14974266 -1.076152e-39 6.01789e-40 0.07140554 -0.019625572 -0.05585756 -0.05934223
0.01674264 -0.015837304 -0.031705275 -0.004936261 0.03931386 -0.071416706 -0.16985881 0.16577756
0.09384041 -0.032065466 0.09282381 0.02470572 -0.029370906 0.04529389 -0.08744421 -0.057977326
-0.016170628 -0.20254812 -0.053617276 -0.043755457 0.054776885 -0.019762283 -0.09927679 -0.06665083
0.00049004797 -0.111437365 -0.06993939 0.10924762 -0.22636259 0.12308814 0.045918286 0.15103637
-0.024551764 -0.08302555 -0.025081366 -0.10198462 0.007679317 0.11037463 0.035137042 0.05049078
-0.1589927 -0.059033647 0.04773222 -0.0012988296 0.14604096 -0.0030773177 0.010790392 0.011947069
0.010267711 0.050721295 -0.116701804 -0.065821856 -0.05776061 -0.28262606 0.04361096 0.033642214
-0.011100611 -0.0075407987 -0.09132194 -0.055592854 -0.11683075 0.019802766 -0.04832915 0.16680579
-0.093770415 -0.055654656 0.05834312 -0.1956104 -0.08004326 -0.040892735 0.19978467 0.62272954
-0.18796109 0.4933357 0.22807993 -0.40836006 -0.2961624 0.54064244 0.3687027 -0.3070288
-0.23072267 0.6486517 0.22357121 -0.28896308 -0.33375216 0.52422315 0.3265248 -0.37550586
-9.2102e-40 9.07437e-40 0.30294648 -0.29711908 0.021655368 0.006269275 -0.0067055 0.01288747
0.019969393 0.0065746997 -0.086017966 0.012665736 0.043325372 0.09008522 0.03381577 0.120533414
0.0890078 0.0071085785 -0.07198929 0.04700586 -0.015750486 -0.010022655 -0.04239326 0.041063532
0.053942244 -0.021488672 0.12123454 0.04564039 0.088706166 0.029116306 0.022402555 -0.11454164
-0.23716599 -0.014178501 -0.05127174 -0.0052007283 -0.0031665463 0.042442404 0.025658488 0.013387321
-0.017752154 0.01160956 -0.041467275 0.09931294 -0.026120812 -0.012476138 -0.010474665 0.0048162085
0.053372383 0.053982902 0.033509932 0.020719497 0.0036214814 -0.06742581 0.017156186 -0.05937181
-0.0022580354 -0.012084484 0.03326413 -0.06723853 -0.21647263 -0.015047935 -0.0054835672 0.004002633
-0.02836676 0.0059952484 0.0067581423 -0.051304106 -0.11584616 -0.006291475 -0.09838779 0.048512384
-0.007127306 -0.032301668 0.0125000365 0.015945744 0.26537824 0.3854221 -0.1886342 1.3076205
0.10673184 0.06894811 -0.12536933 1.2176712 0.095839284 0.13443299 -0.21428278 1.1128557
0.13942632 0.07434087 -0.25179607 1.2354 -0.0115189105 0.07048047 1.77e-42 -1.624825e-39
0.08187258 0.19924389 0.058630466 0.0462749 0.15355362 0.019683607 0.025217902 -0.008961243
0.010492658 -0.043096084 -0.10944658 -0.016944315 0.016303686 -0.056521226 -0.015027508 0.0010413948
-0.19904351 0.0014779781 -0.0140190795 0.038158122 -0.032365978 -0.05144767 -0.035977468 -0.07539789
-0.10064632 -0.06531092 -0.049576573 -0.061835032 -0.060356077 0.037903626 0.07408753 0.061069928
0.081421144 0.121911615 0.0033790064 -0.028065262 -0.008576335 0.05541237 0.03336468 -0.013653691
-0.025443878 -0.062723264 -0.013242211 -0.11792844 -0.08176868 -0.06306475 -0.05019478 -0.02619769

bias f4 [64]
00000000: c0e2 30bd 1999 95bf e0b0 e13d 84c4 00bf
00000010: 3b80 44bf 07b5 cf3d 9dde 8f3d 2aa5 703e
00000020: 2bf8 f83d 0891 0cbf aa16 91be da26 45bf
00000030: b5b1 e2bc 7470 0dbf 84d1 1eba 8db9 3e3d
00000040: dc73 1d3e 56ab 98bf dae6 c73d f7a9 e9bc
00000050: 6558 42bf bd71 a3bd 1f42 c63d dcc0 c1be
00000060: a14d 09bf be0b 46be c4e0 91be a4bb d2be
00000070: 7729 4abf cbde b3be 79bd 3c3d fd6e 8c3e
00000080: 05b2 21be 441c 7bbe 7451 19bf 17c4 50bd
00000090: f1a6 363e b158 f1be f52d 42bf c8cd 6b3b
000000a0: 29d4 68be c34a c5be e222 bd3d e85a 733e
000000b0: fe87 b0bd b187 f53e 4471 1d3e 35a9 9f3d
000000c0: 7c4f 9f3e 34a5 25bf bf65 8fbe d025 8ebf
000000d0: 69c3 7bbf 372c a8bd a256 7abf ad5a 133e
000000e0: 03f9 93bf b9f6 b03c bfd4 bbbc 7ca3 adbd
000000f0: 4268 73bf b24a bdbd d268 6dbf 9b04 6cbe
-0.043184996 -1.1687347 0.11020064 -0.5029986 -0.76758164 0.1014195 0.07024882 0.23500505
0.12156709 -0.549088 -0.28337604 -0.7701241 -0.027672628 -0.55249715 -0.0006058442 0.046563674
0.15376228 -1.1927288 0.09760828 -0.028523428 -0.7591613 -0.07980678 0.0968058 -0.37842453
-0.5363408 -0.19340417 -0.28491795 -0.41158783 -0.7896952 -0.35130915 0.046079133 0.27428427
-0.15790565 -0.24522501 -0.5988991 -0.050968256 0.1783712 -0.4713798 -0.75851375 0.003598081
-0.22737183 -0.385336 0.09235169 0.23765147 -0.086196885 0.47955087 0.15375239 0.077959456
0.3111533 -0.64705205 -0.28007314 -1.110529 -0.9834505 -0.08211558 -0.9778844 0.14390059
-1.1560367 0.021602022 -0.022928594 -0.08478448 -0.9508096 -0.092427626 -0.9273807 -0.23048632

weight f4 [64, 64]
00000000: 1596 febc 6bd5 a83e 6705 2d3e 5b4f 06be
00000010: c7f3 5e3e 6289 3bbc 7573 673d 87f7 3a3c
00000020: 02f7 ec3c 75ac 303c 7850 393d 06d7 673d
00000030: cde2 c53d 4705 f8bd 10f3 ae3b 2588 30bc
00000040: 26c9 d5bc 06c8 363d ff5c 3abc 1744 6c3d
00000050: faae 033e 28be 2c3d ed1b b6bc ed59 b8bc
00000060: 0788 1bbe 9232 253d 8fca 823d e6cd 96bd
00000070: 0ef8 75bc b2c7 0f3d 2ee5 69bc 7c76 243d
00000080: d88e 4dbe b861 1d3d f74e d93e 3f86 273e
00000090: e44d 673d 8636 273e 3769 213e c4be a6bd
000000a0: 63ed f1bd 4d11 38bd ac2a 723c e300 603d
000000b0: f5ed f83d 75ee 793d 1690 9fbc ec44 7b3d
000000c0: 589e e6bc 9714 e83d dacb 6dbe bf86 26bd
000000d0: 489f 983d a689 743d ca1d 39be 7f46 cc3d
000000e0: 17d9 413e 3578 ad3c f404 d83c 996b d0bb
000000f0: 7185 923d b808 093e 0e69 c93b 26b1 3a3e
00000100: 9ee5 bb3d a713 fc3e 8dad bbbc 503d fbbd
00000110: f976 fabd ba02 66bf e0e8 4e3c 3cc7 39bb
00000120: faab 903c eb22 a03d 290c cabd bb9b 323e
00000130: 4f8d debc f88a 02be 4ff9 6ebe 7edd 133d
00000140: 3e8a 87bf ac65 e5bd 18d7 873d 21f6 013c
00000150: b782 4bbe 59f7 513c 24c1 a1bf e97b cdbe
00000160: b62c e93d 35cf e4bc 5860 fabc 2b87 82bc
00000170: b42c 3e3e db27 203d 3aec b6bd e163 3dbc
00000180: 9424 193e 3a9e dd3d ff65 23be 4ba4 803d
00000190: b016 323d e6a6 66be 8a03 5cbe d2d2 943c
000001a0: db79 b23d 531a 183e 08e1 9f3c 9adc 2b3c
000001b0: a552 01be 9500 143d eed7 a8bf 645d 303c
000001c0: 785b cdbe e01b 723e 86f5 1f3e 5c59 9fbe
000001d0: 8215 96bc 8aa1 453d 4789 f03e 99e4 983a
000001e0: 0826 abbd 5d4a 693c b5b6 5e3c 3579 6bbe
000001f0: 1a53 273c 5141 22be a8d4 b2be a1ab 1cbe
00000200: 80a0 c93e b42f d73e 04d2 6fbe 827b a23d
00000210: 95b5 f4be 71d7 ef3b 1210 59bf 207f 6ebf
00000220: 82ac 47bf 97cc bc3e 3026 abbd c60a c0bb
00000230: 6734 2fbf 206c 5f3c b3e8 92bd a184 6dbf
00000240: b1c7 0dbb 214f 943b cfe4 58bf d679 7dbf
00000250: 64d5 263e e128 c33c b458 5b3b caae e23b
00000260: 8df6 4f3e b5c9 9dbf 0af2 13bf a54d 83bd
00000270: b4b7 a43e 12e8 093e 75d0 09bf 59eb 29bf
00000280: 46de 1e3e 3f66 7bbc fb50 94be e5e7 123d
00000290: 1ba2 bbbe 3a2c 88bd e386 da3d 96b0 3ebf
000002a0: cfea 453d 3626 fb3d a7cd f2be 1fa1 64bf
000002b0: 407d 34bf 46ad 34bf c12d e43b 000a 70bf
000002c0: baab a8ba b00c 73bc 61d9 c03e 52a7 ec3e
000002d0: 8c3a 58bd 609b d1be 51f6 313e 7c52 5abf
000002e0: 8c9e b53e 36e5 a3bf b648 23bf 1c8c 1f3c
000002f0: 3950 1ebe c946 7d3e 7d6d a03c e910 cdbe
00000300: a618 31bd 7fab 963e 3422 093e 6fb5 e0bd
00000310: 2553 7b3e 9030 74bc d601 063d 3f7d d93d
00000320: 5abb 423d 872c 4e3d acf5 10bd 34fd cdbc
00000330: 9d61 833d 56a5 473d 9675 e5bc dca0 81bd
00000340: f022 d7bc ff27 0b3d 112a 0e3c 4fe4 a73d
00000350: 3b60 dd3d 98d8 c33d 3dbd c1bc 9818 c3bc
00000360: 428c 31be b90e 3e3d 9c7e ea3d 98cc 4b3d
00000370: 917e 14bc 9f50 543d b8d4 6ebd 898d b83c
00000380: c231 debd ed44 fabc 4cf6 d53e 25c2 f23d
00000390: d0bf d03d 8aa4 293e 0e64 003e ed49 b6bd
000003a0: 4091 33bd 2703 4dbc a317 5a3d 6d48 003e
000003b0: b1f6 153e f71b 67bc ae68 a1bc 560e 443d
000003c0: 230e fabc 8c72 233a dc3f 2ebe d6c8 863c
000003d0: a34a b03b c4fb e63c 6a0a 09bd 2f9e 8b3d
000003e0: 8d89 793e 67fb a03d 373d 05bd 2d0a 483b
000003f0: 2ad7 bc3d 3d59 053e d9a1 013d c868 253e
-0.031077424 0.32975325 0.16896592 -0.13116209 0.21772681 -0.011446329 0.056506593 0.011411554
0.028926376 0.010783304 0.045242757 0.056601547 0.096623994 -0.121103816 0.005339034 -0.010774647
-0.026096892 0.04462435 -0.011374711 0.057682123 0.12859717 0.042173535 -0.022230113 -0.022503817
-0.15188609 0.04033143 0.06386291 -0.07363491 -0.015012754 0.035102554 -0.014275832 0.040152058
-0.20074022 0.03842327 0.42443058 0.16359805 0.056470767 0.16329393 0.15762793 -0.081418544
-0.11812856 -0.044938374 0.014780682 0.054688346 0.12154762 0.061018426 -0.019477885 0.061345026
-0.028151676 0.11332052 -0.23222294 -0.040655848 0.074522555 0.059701584 -0.1807777 0.099743836
0.1893047 0.021175483 0.02636955 -0.006360483 0.07154358 0.13382232 0.0061465567 0.1823164
0.091746554 0.49233744 -0.022909904 -0.12267554 -0.122297235 -0.8984791 0.012628764 -0.0028347513
0.01766013 0.0781916 -0.098656006 0.17442219 -0.02716699 -0.12748325 -0.23337291 0.036099903
-1.0589063 -0.11201033 0.06632823 0.007932217 -0.19874083 0.01281532 -1.2637067 -0.40133598
0.11385481 -0.027930835 -0.030563518 -0.015933594 0.1857174 0.03910051 -0.089317754 -0.0115594575
0.1495536 0.10821195 -0.15956877 0.062813364 0.043478668 -0.22524604 -0.21485725 0.018166933
0.08714648 0.14853792 0.019516483 0.010489607 -0.12629183 0.036133368 -1.3190897 0.010764454
-0.40108848 0.23643446 0.15621004 -0.31122863 -0.018320803 0.04824976 0.46979734 0.0011664807
-0.08356863 0.014238921 0.013593365 -0.22995456 0.010212684 -0.15845229 -0.3492787 -0.15299846
0.39380264 0.42028582 -0.23419958 0.079337135 -0.47794786 0.007319384 -0.84790146 -0.9316273
-0.779976 0.3687484 -0.08356893 -0.0058606593 -0.68439335 0.013636619 -0.0717329 -0.927805
-0.0021633918 0.0045260345 -0.84724134 -0.9901403 0.1629234 0.023823204 0.003346962 0.006917809
0.20308895 -1.2327181 -0.577912 -0.06411294 0.32171404 0.13467434 -0.53833705 -0.6637474
0.15514478 -0.015344202 -0.28968033 0.035865683 -0.36647114 -0.066490605 0.10670259 -0.744882
0.048319634 0.122631475 -0.47422525 -0.8930835 -0.70503616 -0.70576894 0.006963462 -0.9376526
-0.0012868561 -0.014834568 0.37665847 0.46221405 -0.05279021 -0.40938854 0.17379119 -0.8528211
0.35472524 -1.2804325 -0.63782823 0.0097379945 -0.1546029 0.24734034 0.019583458 -0.40051964
-0.043236397 0.29427716 0.13391954 -0.10972106 0.24543436 -0.014904156 0.032716595 0.10619592
0.047541954 0.050335433 -0.03539054 -0.02514515 0.06415103 0.04874166 -0.02801017 -0.063295096
-0.026261777 0.03397369 0.008677022 0.08197843 0.1080937 0.09562796 -0.023649806 -0.023815438
-0.1733866 0.04640076 0.1144993 0.049755663 -0.009063379 0.0518347 -0.058308333 0.022528427
-0.10849334 -0.030550444 0.41789472 0.118534364 0.10192835 0.16566673 0.12538168 -0.08900819
-0.043839693 -0.012512959 0.053245198 0.12527628 0.14644887 -0.014105788 -0.019703235 0.047865234
-0.030524319 0.00062350254 -0.17016548 0.016453188 0.005379991 0.028196223 -0.033457197 0.068172805
0.24368878 0.07860451 -0.032529082 0.0030523643 0.09220727 0.13022323 0.03164849 0.16153252

bias f4 [64]
00000000: d698 3f3e aa5e af3d 4215 5f3e 5eb0 3c3e
00000010: a4c2 cf3e 5a1f 7c3e 9e6d 343e 4640 9e3e
00000020: 3282 8e3e 6e34 953e 9404 8e3e f5c4 ba3e
00000030: 27b2 383e f12a 943e fbfa d93c e046 b93e
00000040: 9172 563e 75b4 a13d 19de 8b3e 5edc 5e3e
00000050: 2638 cd3e 42ef 1b3e 7c80 a13e 7e5e e63e
00000060: 8370 cf3d 19cc b33e 4bb1 dd3e 57e0 6c3d
00000070: f691 823e 8ec7 aa3e 6825 f03d b6e2 353e
00000080: 6e41 2b3d 0b6b cb3e fd57 c73e 48ce a53d
00000090: e481 513e 1dc5 933e 20fc 8c3e 47d6 4d3e
000000a0: 0532 ad3e acdf a93e 9075 713e acd5 d43e
000000b0: fa0b 9d3d e47e 5a3e 1172 833e a385 c73d
000000c0: 30bf ac3d d80d 103e a99f fd3d 3610 dd3e
000000d0: b17b 8c3e 6cf2 413e 0a6d fa3d d133 0d3e
000000e0: b83f ce3e 2db9 373e 34a3 ac3e a630 583e
000000f0: d490 213e 6d41 fc3d 5224 e63e 01dc c73e
0.18710646 0.085629776 0.21785453 0.18426654 0.40578187 0.24621335 0.1761994 0.30908412
0.27833706 0.29141563 0.27737868 0.3647839 0.1803671 0.28939012 0.026608935 0.36186886
0.20942141 0.078957476 0.27317885 0.21763751 0.400819 0.15227988 0.31543338 0.44993967
0.10128882 0.35116652 0.43299326 0.057831135 0.25501984 0.33355373 0.11725885 0.17762265
0.041810445 0.39730105 0.38934317 0.08095986 0.20459706 0.28861323 0.27536106 0.20101272
0.33827224 0.3317846 0.23580003 0.4156927 0.076683 0.21337467 0.25672963 0.09742286
0.084349036 0.14067781 0.123839684 0.4317643 0.2743812 0.18940133 0.12227829 0.13789298
0.4028299 0.17941733 0.33718264 0.21112308 0.15777904 0.123171665 0.44949585 0.39035037

weight f4 [64, 64]
00000000: 4b8e a93d 7d8b 3f3e 40fd 3bc0 7eeb 773a
00000010: 5243 b2bc db49 023b c803 cf3d a192 b93d
00000020: 0923 fb3c 855d f3bc 7f02 013e 4463 00bd
00000030: c7ae 85bc c673 79bd bc40 bf3d 6e59 2dbd
00000040: 0d6c ec3d 0a1e 483d 7cc1 103e a88a 34c0
00000050: fba8 0c3d 4056 f03d 4841 dbbc 66ba 053c
00000060: 0b16 7d3e babe b33d ff67 b03d d42b 713c
00000070: 8262 073c 25b5 2abd 2b79 213e 43ab 09bd
00000080: 1607 4e3d 7b21 0bbe b219 b13b 8739 123d
00000090: 69f3 78bc 736b acbc 8568 0b3e a0a1 dabc
000000a0: 00da 583d d3ab d33c bb28 c03d 7d3d 9a3c
000000b0: 70b2 303d 321c 873d a70a 873d cef7 553e
000000c0: 7f33 20bd 6fb9 ee3d ceb1 003e 2de4 f53d
000000d0: 87c6 37bc 789f 2a3e cbd1 c33c 1d5d 82bd
000000e0: 7c52 8c3d 6f7f f7bc 3d6f 20bd 10e4 b93d
000000f0: 2ae8 313d 3968 9a3d 8197 963d 334a 89bf
00000100: e84d 2d3e 97fc 5a3d 3a6f 1bbf d95d 683c
00000110: e7ae c13d 83fa 763d 2578 b73d 637e 253e
00000120: 74ac d43c 449f 023d 137a 813b 5815 163e
00000130: b60d 063e d2b1 a03b 92f4 8a3d 89c9 e13d
00000140: cab0 813c 1a41 103e 9556 013e 3fe3 f2be
00000150: 345d b83d 80c3 fd3b a5aa c63c 07f3 2dbd
00000160: 8a30 063e b4ce 1d3c 77e5 063e ad43 ff3d
00000170: 5d3a 023e bcac 423e 4c57 543d ce1e b53d
00000180: 6fc0 f13b aa6b 093e 8c40 983d 2901 e6bc
00000190: 7d7e c93d 5e02 0e3e 7f94 803d f977 233e
000001a0: 3d42 063e ebf4 193e 2d54 943d c0a3 0f3e
000001b0: 8e8c 353e d37a e93d 71b6 593d 31fc bc3d
000001c0: 07c9 d2bc e05e 2b3d 097d d83d ea25 ccbc
000001d0: 1557 ec3d 2c83 303d 6f53 0b3e a424 15bd
000001e0: b259 263d e4c1 b03d 83dd 25bd 2a85 253d
000001f0: 1f22 45bd 2ca3 403e 06f4 913d f3fb 06be
00000200: 5685 06bd d513 ed3d 88db 16c0 4c2c 01bd
00000210: d723 c83d 6e1c 93bc bac1 603d 357f 163c
00000220: a930 803d d856 f5bc 692f 8bbc e45b 28bd
00000230: f2ae 963d 114e 6abc 7683 83bb 8e52 87bc
00000240: aa71 6dbc 5966 c53d c0ea 37bd b2dd 07c0
00000250: ad8e 413d ea00 c5bc 0012 f53d fcbe 1e3e
00000260: 13ac 093e e478 3d3d 1b61 22bd 79b5 903d
00000270: d2c1 e13c 6e61 f93c 24f6 e93c 6bfc 59bc
00000280: 8d0c 81bd faf7 ad3d 1a29 493d 855c 8b3d
00000290: 91b7 4fbd 3e64 a43d 7db7 693d f6c6 aabd
000002a0: 68d6 563d 4145 663d 955e 033e 0258 40bd
000002b0: a807 d83d 9f8a 953d eb39 1f3e e779 4c3c
000002c0: d8e0 893d 35b6 233e 04c8 2b3e 764b 19bb
000002d0: 6fe0 8fbc fbc3 5e3d d4aa 763d 60be 283d
000002e0: 823d 21bd 5c35 473d 0053 4a3b dd1d 303e
000002f0: 8d18 103e d9a4 d53d ddc8 e1bb 3844 8abf
00000300: ac8c d33b b174 8d3d 9c95 d0be 0935 d13d
00000310: c36f 143e 3978 443e 5b85 253d 27ff 4bbd
00000320: 71dc 143e 25b9 a73d 40a6 2a3e cc9c 093e
00000330: d361 a9bc 395a a43d 7dca 70bd 9c59 c73c
00000340: a373 20bb 9106 443e d905 723d 2f90 9cbe
00000350: 202b 1c3e 1456 2e3d 937b e73d b7bd 363d
00000360: 3f49 583e e145 ca3d ecb2 003e 510d e63d
00000370: bcdf 9e3c 07a1 2f3e 17b9 0c3e b2fc ac3d
00000380: 0c90 143e 9149 cebb 91b6 053d 53d7 953d
00000390: 8415 a83d 73ec 54bc 57fb 333d 4dab 9b3c
000003a0: 50eb 9dbc c847 e63d 1fd4 413e 707c bc3d
000003b0: 080a ff3d 9c23 203e 4ae1 c13d 81b4 8b3d
000003c0: 3b65 c3bc bebe 03bd d6d5 803d 1305 1d3e
000003d0: 71e3 e63d 83fe 113e 98cc ca3d 7ea2 873a
000003e0: cb33 673e 3d0c 7f3d 7272 e73c 25f9 6f3e
000003f0: 9ad0 c13d fd31 8f3e 88f6 733d 6ece e5bd
0.08279093 0.18705554 -2.9373322 0.00094573933 -0.021760616 0.0019880447 0.10108143 0.0906117
0.030656355 -0.02970768 0.12598608 -0.031344667 -0.016318692 -0.060901426 0.09338519 -0.042321615
0.115440466 0.048856772 0.14136308 -2.820963 0.03434084 0.11735201 -0.026764527 0.008162117
0.2471544 0.087766126 0.08613586 0.014719922 0.008263232 -0.04167666 0.15768878 -0.033610594
0.050299726 -0.1358699 0.0054046744 0.035699394 -0.015194752 -0.02104733 0.1361409 -0.026688397
0.052942276 0.025838768 0.09382769 0.018828148 0.04313892 0.06597175 0.06593829 0.20895311
-0.03911161 0.116564624 0.12567827 0.12006412 -0.011216766 0.16662395 0.023903748 -0.06365416
0.0685167 -0.030212132 -0.039168585 0.090767026 0.0434343 0.0753941 0.07353116 -1.0725769
0.1692425 0.053463545 -0.60716593 0.014182531 0.09457188 0.0602975 0.089584626 0.16161494
0.025961138 0.03189017 0.00395132 0.1465658 0.13091168 0.0049040103 0.06784929 0.11024768
0.01583137 0.14087334 0.12630685 -0.47439 0.09002152 0.0077442527 0.024251292 -0.042468097
0.13104454 0.009631801 0.13173471 0.1246408 0.12717576 0.19011205 0.051841065 0.08843766
0.007377676 0.13419977 0.07434186 -0.028076725 0.09838579 0.1386809 0.062783234 0.15963735
0.13111205 0.15034835 0.07242618 0.1402731 0.17729399 0.1140038 0.053152505 0.09227789
-0.025730623 0.041838527 0.105707236 -0.024920423 0.11540047 0.043093845 0.13606046 -0.036411896
0.040612884 0.08630732 -0.040494453 0.0404102 -0.048128244 0.18812245 0.07126622 -0.13182048
-0.032842003 0.11576048 -2.3571491 -0.031536385 0.09772461 -0.017957892 0.054872252 0.009185602
0.06259281 -0.029948637 -0.01699038 -0.04110326 0.07357587 -0.014300839 -0.004013474 -0.016518857
-0.014492432 0.09638662 -0.04490161 -2.1229062 0.047255207 -0.024048287 0.11966324 0.15502542
0.13444547 0.04625787 -0.03964339 0.07065863 0.027558241 0.030441966 0.028559752 -0.01330481
-0.06301222 0.084945634 0.049111463 0.06804756 -0.050712172 0.08026932 0.057059754 -0.0833873
0.052450567 0.05621839 0.12829049 -0.04695893 0.10548335 0.073018305 0.15549438 0.012480236
0.06732339 0.15987475 0.16775519 -0.0023390925 -0.017563073 0.05438612 0.06022151 0.04119718
-0.0393653 0.04863487 0.0030872226 0.17198892 0.14071865 0.10431833 -0.0068904 -1.0802069
0.0064559784 0.06907023 -0.40739143 0.10215194 0.14495759 0.19186486 0.04041038 -0.04980388
0.14537217 0.081896104 0.16664982 0.1343872 -0.020676529 0.08025021 -0.058786858 0.024334721
-0.0024482987 0.1914313 0.059087608 -0.30578753 0.15250826 0.04256256 0.11302867 0.04461452
0.21121691 0.098766096 0.12568253 0.11233009 0.019393794 0.17151271 0.13742481 0.08446635
0.14508075 -0.006295391 0.032644812 0.073164605 0.08207229 -0.012995827 0.04394087 0.019002581
-0.019277245 0.1124416 0.18928574 0.09203422 0.12453085 0.15638584 0.094667986 0.06821538
-0.023851981 -0.032164328 0.06290786 0.15333967 0.1127385 0.14257245 0.099023044 0.0010348109
0.22578351 0.06226753 0.028252814 0.23434885 0.09463616 0.27967826 0.059561282 -0.11221014

bias f4 [64]
00000000: 4a2c 2c3f cfc3 b33e 7814 393f 7dd5 823e
00000010: 9b0a 263f 3e8a 383f 05bf 393f 0f47 3d3e
00000020: d3de 103e 39ad 473e ea82 313e 7076 2c3e
00000030: fa6a 403e f9e0 2e3e e351 393f f432 4a3e
00000040: 5a27 933e 5ed5 483e ec4f 303f 178d 2e3f
00000050: 886d 893e 1e0b 3b3f a62b 8c3e 61bb 3f3f
00000060: 0f77 6f3e ab79 1d3f a93c 363f 4f04 2e3f
00000070: a174 363e b32f 353e d18d 123f 9b1a 573e
00000080: 3a64 4b3e 70c4 4e3e cbed 3a3f 398f 4c3e
00000090: 77da 293f 86d5 3a3f acf6 173f 10b9 263f
000000a0: 7bda 263f 62b4 593e c10e 3d3f 076f 443e
000000b0: 6141 203e 611a 413f 1ed7 803e 93f0 3e3f
000000c0: c057 263f 091c 2c3f 2d95 373f 3153 3c3f
000000d0: e081 3c3e 1d99 2b3e e3e2 5c3e e54b 593e
000000e0: 344f 193e 1349 083f 84fc 293e a1af 333f
000000f0: 8f0f 303f c481 243f 9736 3d3e 67a3 3d3f
0.6725508 0.35110328 0.7229686 0.25553504 0.6485993 0.7208594 0.725571 0.18484138
0.141475 0.19499673 0.17335096 0.16842055 0.18790808 0.17078008 0.72390574 0.19746
0.2874096 0.19612643 0.6887195 0.68184036 0.26841378 0.7306384 0.2737705 0.7489529
0.23385261 0.61513776 0.7118631 0.67975324 0.17817928 0.17693977 0.57247645 0.21006243
0.19862452 0.20192122 0.73019093 0.1997651 0.66348976 0.7298206 0.59360766 0.6512613
0.65177125 0.21260217 0.7385064 0.19182979 0.1564994 0.75430876 0.2516412 0.7458584
0.64977646 0.6723028 0.71712 0.7356444 0.18408918 0.16757627 0.21570925 0.21220358
0.1497162 0.532365 0.16600233 0.70189863 0.6877374 0.64260507 0.18477856 0.7407746

weight f4 [1, 64]
00000000: abc9 27bf eb07 a6be e5da 2ebf 8807 b2be
00000010: bb2c 3fbf da9a 1abf 6a23 21bf 1360 93be
00000020: 1aa2 a9be cd10 a9be 997c acbe 8ad4 9dbe
00000030: ff8b aabe 32fa a1be 4f00 1dbf 6f1b aebe
00000040: 48af a1be 8526 a3be 05db 43bf 30d1 49bf
00000050: 4391 95be d121 30bf 67a0 9cbe ae93 22bf
00000060: 02ea a8be 34aa 07bf 632e 1fbf a6f1 42bf
00000070: 212c a4be b3ee a6be 8094 e3be 6b93 98be
00000080: 18b1 a6be 1797 b5be 5a6c 12bf 74c8 b6be
00000090: 3baa 19bf d26e 28bf ea2c efbe b846 09bf
000000a0: d57b 46bf b817 abbe 0257 1bbf 2531 9fbe
000000b0: 2e11 a6be 8212 2dbf 8c7a abbe 1fed 35bf
000000c0: bb96 0bbf 26bc 19bf 18cf 2bbf 3eb6 15bf
000000d0: f1c0 afbe 9492 a3be ad7b 9cbe f89a a4be
000000e0: 063b a8be b496 dcbe 20d1 b5be cf27 23bf
000000f0: 8e81 1abf f4a4 eabe 5667 bdbe 3302 35bf
-0.65542096 -0.32427916 -0.68302757 -0.3477137 -0.7467763 -0.60392535 -0.6294466 -0.28784236
-0.33131486 -0.3302063 -0.3368881 -0.30826217 -0.33309934 -0.31636196 -0.61328596 -0.34005305
-0.3157904 -0.31865326 -0.7650607 -0.7883482 -0.29212388 -0.688016 -0.30591127 -0.6350659
-0.32991034 -0.52994084 -0.62180156 -0.76149976 -0.32064918 -0.32603988 -0.44449234 -0.2979997
-0.32556987 -0.35466835 -0.5719658 -0.3569981 -0.60025376 -0.657941 -0.46713954 -0.53623533
-0.775327 -0.33416533 -0.6067964 -0.31092182 -0.32434982 -0.67606366 -0.33491933 -0.71064943
-0.5452687 -0.60052717 -0.67112875 -0.58481205 -0.3432689 -0.31947768 -0.30563107 -0.32149482
-0.3285753 -0.43083727 -0.35511112 -0.6373262 -0.60353935 -0.45828974 -0.36992902 -0.7070648
